…
part 4, train: 78697 (local: 78697), val: 8110 (local: 7708), test: 5243 (local: 5072)
part 2, train: 78696 (local: 77008), val: 8110 (local: 8110), test: 5242 (local: 5242)
part 1, train: 78697 (local: 76875), val: 8110 (local: 8110), test: 5243 (local: 5243)
#classes: 349
node paper has data feat
#classes: 349
node paper has data feat
#classes: 349
#classes: 349
node paper has data feat
node paper has data feat
#classes: 349
node paper has data feat
#classes: 349
node paper has data feat
#classes: 349
node paper has data feat
#classes: 349
node paper has data feat
optimize Pytorch sparse embedding: ModuleDict(
  (author): Embedding(1134649, 64, sparse=True)
  (field_of_study): Embedding(59965, 64, sparse=True)
  (institution): Embedding(8740, 64, sparse=True)
)
optimize dense projection: ModuleDict(
  (paper): Linear(in_features=128, out_features=64, bias=True)
)
start training...
optimize Pytorch sparse embedding: ModuleDict(
  (author): Embedding(1134649, 64, sparse=True)
  (field_of_study): Embedding(59965, 64, sparse=True)
  (institution): Embedding(8740, 64, sparse=True)
)
optimize dense projection: ModuleDict(
  (paper): Linear(in_features=128, out_features=64, bias=True)
)
start training...
optimize Pytorch sparse embedding: ModuleDict(
  (author): Embedding(1134649, 64, sparse=True)
  (field_of_study): Embedding(59965, 64, sparse=True)
  (institution): Embedding(8740, 64, sparse=True)
)
optimize dense projection: ModuleDict(
  (paper): Linear(in_features=128, out_features=64, bias=True)
)
start training...
optimize Pytorch sparse embedding: ModuleDict(
  (author): Embedding(1134649, 64, sparse=True)
  (field_of_study): Embedding(59965, 64, sparse=True)
  (institution): Embedding(8740, 64, sparse=True)
)
optimize dense projection: ModuleDict(
  (paper): Linear(in_features=128, out_features=64, bias=True)
)
start training...
optimize Pytorch sparse embedding: ModuleDict(
  (author): Embedding(1134649, 64, sparse=True)
  (field_of_study): Embedding(59965, 64, sparse=True)
  (institution): Embedding(8740, 64, sparse=True)
)
optimize dense projection: ModuleDict(
  (paper): Linear(in_features=128, out_features=64, bias=True)
)
start training...
optimize Pytorch sparse embedding: ModuleDict(
  (author): Embedding(1134649, 64, sparse=True)
  (field_of_study): Embedding(59965, 64, sparse=True)
  (institution): Embedding(8740, 64, sparse=True)
)
optimize dense projection: ModuleDict(
  (paper): Linear(in_features=128, out_features=64, bias=True)
)
start training...
optimize Pytorch sparse embedding: ModuleDict(
  (author): Embedding(1134649, 64, sparse=True)
  (field_of_study): Embedding(59965, 64, sparse=True)
  (institution): Embedding(8740, 64, sparse=True)
)
optimize dense projection: ModuleDict(
  (paper): Linear(in_features=128, out_features=64, bias=True)
)
start training...
optimize Pytorch sparse embedding: ModuleDict(
  (author): Embedding(1134649, 64, sparse=True)
  (field_of_study): Embedding(59965, 64, sparse=True)
  (institution): Embedding(8740, 64, sparse=True)
)
optimize dense projection: ModuleDict(
  (paper): Linear(in_features=128, out_features=64, bias=True)
)
start training...
[4] Epoch 00000 | Step 00000 | Train acc 0.0020 | Loss 5.8798 | time 0.442 s| sample 0.070 | copy 0.053 | forward 0.051 | backward 0.187 | update 0.081
[6] Epoch 00000 | Step 00000 | Train acc 0.0020 | Loss 5.8951 | time 0.658 s| sample 0.076 | copy 0.053 | forward 0.053 | backward 0.381 | update 0.096
[1] Epoch 00000 | Step 00000 | Train acc 0.0049 | Loss 5.8799 | time 0.656 s| sample 0.075 | copy 0.073 | forward 0.054 | backward 0.343 | update 0.111
…
