…
part 0, train: 78697 (local: 76971), val: 8110 (local: 8110), test: 5243 (local: 5243)
part 6, train: 78696 (local: 78696), val: 8110 (local: 7735), test: 5242 (local: 5072)
part 7, train: 78696 (local: 78696), val: 8109 (local: 7738), test: 5242 (local: 5092)
#classes: 349
#classes: 349
node paper has data feat
node paper has data feat
#classes: 349
#classes: 349
node paper has data feat
node paper has data feat
#classes: 349
node paper has data feat
#classes: 349
node paper has data feat
#classes: 349
node paper has data feat
#classes: 349
node paper has data feat
optimize Pytorch sparse embedding: ModuleDict(
  (author): Embedding(1134649, 64, sparse=True)
  (field_of_study): Embedding(59965, 64, sparse=True)
  (institution): Embedding(8740, 64, sparse=True)
)
optimize dense projection: ModuleDict(
  (paper): Linear(in_features=128, out_features=64, bias=True)
)
start training...
optimize Pytorch sparse embedding: ModuleDict(
  (author): Embedding(1134649, 64, sparse=True)
  (field_of_study): Embedding(59965, 64, sparse=True)
  (institution): Embedding(8740, 64, sparse=True)
)
optimize dense projection: ModuleDict(
  (paper): Linear(in_features=128, out_features=64, bias=True)
)
start training...
optimize Pytorch sparse embedding: ModuleDict(
  (author): Embedding(1134649, 64, sparse=True)
  (field_of_study): Embedding(59965, 64, sparse=True)
  (institution): Embedding(8740, 64, sparse=True)
)
optimize dense projection: ModuleDict(
  (paper): Linear(in_features=128, out_features=64, bias=True)
)
start training...
optimize Pytorch sparse embedding: optimize Pytorch sparse embedding: ModuleDict(
  (author): Embedding(1134649, 64, sparse=True)
  (field_of_study): Embedding(59965, 64, sparse=True)
  (institution): Embedding(8740, 64, sparse=True)
)
ModuleDict(
  (author): Embedding(1134649, 64, sparse=True)
  (field_of_study): Embedding(59965, 64, sparse=True)
  (institution): Embedding(8740, 64, sparse=True)
)
optimize dense projection: ModuleDict(
  (paper): Linear(in_features=128, out_features=64, bias=True)
)
optimize dense projection: ModuleDict(
  (paper): Linear(in_features=128, out_features=64, bias=True)
)
start training...
start training...
optimize Pytorch sparse embedding: ModuleDict(
  (author): Embedding(1134649, 64, sparse=True)
  (field_of_study): Embedding(59965, 64, sparse=True)
  (institution): Embedding(8740, 64, sparse=True)
)
optimize dense projection: ModuleDict(
  (paper): Linear(in_features=128, out_features=64, bias=True)
)
start training...
optimize Pytorch sparse embedding: ModuleDict(
  (author): Embedding(1134649, 64, sparse=True)
  (field_of_study): Embedding(59965, 64, sparse=True)
  (institution): Embedding(8740, 64, sparse=True)
)
optimize dense projection: ModuleDict(
  (paper): Linear(in_features=128, out_features=64, bias=True)
)
start training...
optimize Pytorch sparse embedding: ModuleDict(
  (author): Embedding(1134649, 64, sparse=True)
  (field_of_study): Embedding(59965, 64, sparse=True)
  (institution): Embedding(8740, 64, sparse=True)
)
optimize dense projection: ModuleDict(
  (paper): Linear(in_features=128, out_features=64, bias=True)
)
start training...
[6] Epoch 00000 | Step 00000 | Train acc 0.0029 | Loss 5.9122 | time 2.916 s| sample 1.148 | copy 0.096 | forward 0.031 | backward 1.472 | update 0.170
[5] Epoch 00000 | Step 00000 | Train acc 0.0059 | Loss 5.8932 | time 2.925 s| sample 0.582 | copy 0.100 | forward 0.059 | backward 1.997 | update 0.187
[4] Epoch 00000 | Step 00000 | Train acc 0.0059 | Loss 5.8930 | time 2.933 s| sample 0.572 | copy 0.553 | forward 0.053 | backward 1.571 | update 0.183
…
